…
ber of files in directory: 3
Skipping test: Not a valid image
Skipping train: Not a valid image
Number of loaded images: 0
Number of files in directory: 3
Skipping test: Not a valid image
Skipping train: Not a valid image
Number of loaded images: 0
Found 1422 images belonging to 2 classes.
Encoded labels:  []
Found 1422 images belonging to 2 classes.
Model: "sequential"
_________________________________________________________________
 Layer (type)                Output Shape              Param #   
=================================================================
 conv2d (Conv2D)             (None, 238, 238, 16)      448       
                                                                 
 max_pooling2d (MaxPooling2D  (None, 119, 119, 16)     0         
 )                                                               
                                                                 
 conv2d_1 (Conv2D)           (None, 117, 117, 32)      4640      
                                                                 
 max_pooling2d_1 (MaxPooling  (None, 58, 58, 32)       0         
 2D)                                                             
                                                                 
 conv2d_2 (Conv2D)           (None, 56, 56, 64)        18496     
                                                                 
 max_pooling2d_2 (MaxPooling  (None, 28, 28, 64)       0         
 2D)                                                             
                                                                 
 conv2d_3 (Conv2D)           (None, 26, 26, 128)       73856     
                                                                 
 max_pooling2d_3 (MaxPooling  (None, 13, 13, 128)      0         
 2D)                                                             
                                                                 
 conv2d_4 (Conv2D)           (None, 11, 11, 256)       295168    
                                                                 
 max_pooling2d_4 (MaxPooling  (None, 5, 5, 256)        0         
 2D)                                                             
                                                                 
 conv2d_5 (Conv2D)           (None, 3, 3, 512)         1180160   
                                                                 
 max_pooling2d_5 (MaxPooling  (None, 1, 1, 512)        0         
 2D)                                                             
                                                                 
 flatten (Flatten)           (None, 512)               0         
                                                                 
 dropout (Dropout)           (None, 512)               0         
                                                                 
 dense (Dense)               (None, 60)                30780     
                                                                 
 dropout_1 (Dropout)         (None, 60)                0         
                                                                 
 dense_1 (Dense)             (None, 60)                3660      
                                                                 
 dense_2 (Dense)             (None, 1)                 61        
                                                                 
=================================================================
Total params: 1,607,269
Trainable params: 1,607,269
Non-trainable params: 0
_________________________________________________________________
Epoch 1/25

 1/12 [=>............................] - ETA: 14s - loss: 0.9211 - accuracy: 0.5000
 2/12 [====>.........................] - ETA: 41s - loss: 0.9130 - accuracy: 0.4930
…
